input: "data"
input_shape {
  dim: 10
  dim: 2
  dim: 64
  dim: 64
}
layer {
  name: "caffe.SpatialConvolution_0"
  type: "Convolution"
  bottom: "data"
  top: "caffe.SpatialConvolution_0"
  convolution_param {
    num_output: 96
    pad_h: 0
    pad_w: 0
    kernel_h: 7
    kernel_w: 7
    stride_h: 3
    stride_w: 3
  }
}
layer {
  name: "caffe.ReLU_1"
  type: "ReLU"
  bottom: "caffe.SpatialConvolution_0"
  top: "caffe.SpatialConvolution_0"
}
layer {
  name: "caffe.Pooling_2"
  type: "Pooling"
  bottom: "caffe.SpatialConvolution_0"
  top: "caffe.Pooling_2"
  pooling_param {
    pool: MAX
    kernel_h: 2
    kernel_w: 2
    stride_h: 2
    stride_w: 2
    pad_h: 0
    pad_w: 0
  }
}
layer {
  name: "caffe.SpatialConvolution_3"
  type: "Convolution"
  bottom: "caffe.Pooling_2"
  top: "caffe.SpatialConvolution_3"
  convolution_param {
    num_output: 192
    pad_h: 0
    pad_w: 0
    kernel_h: 5
    kernel_w: 5
    stride_h: 1
    stride_w: 1
  }
}
layer {
  name: "caffe.ReLU_4"
  type: "ReLU"
  bottom: "caffe.SpatialConvolution_3"
  top: "caffe.SpatialConvolution_3"
}
layer {
  name: "caffe.Pooling_5"
  type: "Pooling"
  bottom: "caffe.SpatialConvolution_3"
  top: "caffe.Pooling_5"
  pooling_param {
    pool: MAX
    kernel_h: 2
    kernel_w: 2
    stride_h: 2
    stride_w: 2
    pad_h: 0
    pad_w: 0
  }
}
layer {
  name: "caffe.SpatialConvolution_6"
  type: "Convolution"
  bottom: "caffe.Pooling_5"
  top: "caffe.SpatialConvolution_6"
  convolution_param {
    num_output: 256
    pad_h: 0
    pad_w: 0
    kernel_h: 3
    kernel_w: 3
    stride_h: 1
    stride_w: 1
  }
}
layer {
  name: "caffe.ReLU_7"
  type: "ReLU"
  bottom: "caffe.SpatialConvolution_6"
  top: "caffe.SpatialConvolution_6"
}
layer {
  name: "caffe.Flatten_8"
  type: "Flatten"
  bottom: "caffe.SpatialConvolution_6"
  top: "caffe.Flatten_8"
}
layer {
  name: "caffe.InnerProduct_9"
  type: "InnerProduct"
  bottom: "caffe.Flatten_8"
  top: "caffe.InnerProduct_9"
  inner_product_param {
    num_output: 1
    axis: -1
  }
}
