input: "data"
input_shape {
  dim: 10
  dim: 2
  dim: 64
  dim: 64
}
layer {
  name: "caffe.SpatialConvolution_0"
  type: "Convolution"
  bottom: "data"
  top: "caffe.SpatialConvolution_0"
  convolution_param {
    num_output: 96
    pad_h: 0
    pad_w: 0
    kernel_h: 4
    kernel_w: 4
    stride_h: 3
    stride_w: 3
  }
}
layer {
  name: "caffe.ReLU_1"
  type: "ReLU"
  bottom: "caffe.SpatialConvolution_0"
  top: "caffe.SpatialConvolution_0"
}
layer {
  name: "caffe.SpatialConvolution_2"
  type: "Convolution"
  bottom: "caffe.SpatialConvolution_0"
  top: "caffe.SpatialConvolution_2"
  convolution_param {
    num_output: 96
    pad_h: 0
    pad_w: 0
    kernel_h: 3
    kernel_w: 3
    stride_h: 1
    stride_w: 1
  }
}
layer {
  name: "caffe.ReLU_3"
  type: "ReLU"
  bottom: "caffe.SpatialConvolution_2"
  top: "caffe.SpatialConvolution_2"
}
layer {
  name: "caffe.SpatialConvolution_4"
  type: "Convolution"
  bottom: "caffe.SpatialConvolution_2"
  top: "caffe.SpatialConvolution_4"
  convolution_param {
    num_output: 96
    pad_h: 0
    pad_w: 0
    kernel_h: 3
    kernel_w: 3
    stride_h: 1
    stride_w: 1
  }
}
layer {
  name: "caffe.ReLU_5"
  type: "ReLU"
  bottom: "caffe.SpatialConvolution_4"
  top: "caffe.SpatialConvolution_4"
}
layer {
  name: "caffe.SpatialConvolution_6"
  type: "Convolution"
  bottom: "caffe.SpatialConvolution_4"
  top: "caffe.SpatialConvolution_6"
  convolution_param {
    num_output: 96
    pad_h: 0
    pad_w: 0
    kernel_h: 3
    kernel_w: 3
    stride_h: 1
    stride_w: 1
  }
}
layer {
  name: "caffe.ReLU_7"
  type: "ReLU"
  bottom: "caffe.SpatialConvolution_6"
  top: "caffe.SpatialConvolution_6"
}
layer {
  name: "caffe.Pooling_8"
  type: "Pooling"
  bottom: "caffe.SpatialConvolution_6"
  top: "caffe.Pooling_8"
  pooling_param {
    pool: MAX
    kernel_h: 2
    kernel_w: 2
    stride_h: 2
    stride_w: 2
    pad_h: 0
    pad_w: 0
  }
}
layer {
  name: "caffe.SpatialConvolution_9"
  type: "Convolution"
  bottom: "caffe.Pooling_8"
  top: "caffe.SpatialConvolution_9"
  convolution_param {
    num_output: 192
    pad_h: 0
    pad_w: 0
    kernel_h: 3
    kernel_w: 3
    stride_h: 1
    stride_w: 1
  }
}
layer {
  name: "caffe.ReLU_10"
  type: "ReLU"
  bottom: "caffe.SpatialConvolution_9"
  top: "caffe.SpatialConvolution_9"
}
layer {
  name: "caffe.SpatialConvolution_11"
  type: "Convolution"
  bottom: "caffe.SpatialConvolution_9"
  top: "caffe.SpatialConvolution_11"
  convolution_param {
    num_output: 192
    pad_h: 0
    pad_w: 0
    kernel_h: 3
    kernel_w: 3
    stride_h: 1
    stride_w: 1
  }
}
layer {
  name: "caffe.ReLU_12"
  type: "ReLU"
  bottom: "caffe.SpatialConvolution_11"
  top: "caffe.SpatialConvolution_11"
}
layer {
  name: "caffe.SpatialConvolution_13"
  type: "Convolution"
  bottom: "caffe.SpatialConvolution_11"
  top: "caffe.SpatialConvolution_13"
  convolution_param {
    num_output: 192
    pad_h: 0
    pad_w: 0
    kernel_h: 3
    kernel_w: 3
    stride_h: 1
    stride_w: 1
  }
}
layer {
  name: "caffe.ReLU_14"
  type: "ReLU"
  bottom: "caffe.SpatialConvolution_13"
  top: "caffe.SpatialConvolution_13"
}
layer {
  name: "caffe.Flatten_15"
  type: "Flatten"
  bottom: "caffe.SpatialConvolution_13"
  top: "caffe.Flatten_15"
}
layer {
  name: "caffe.InnerProduct_16"
  type: "InnerProduct"
  bottom: "caffe.Flatten_15"
  top: "caffe.InnerProduct_16"
  inner_product_param {
    num_output: 1
    axis: -1
  }
}
